{
    "format": "layers-model",
    "generatedBy": "keras v2.2.4",
    "convertedBy": "TensorFlow.js Converter v1.2.2.1",
    "modelTopology": {
        "keras_version": "2.2.4",
        "backend": "tensorflow",
        "model_config": {
            "class_name": "Sequential",
            "config": {
                "name": "sequential_1",
                "layers": [
                    {
                        "class_name": "Conv2D",
                        "config": {
                            "name": "conv2d_1",
                            "trainable": true,
                            "batch_input_shape": [
                                null,
                                224,
                                224,
                                3
                            ],
                            "dtype": "float32",
                            "filters": 64,
                            "kernel_size": [
                                3,
                                3
                            ],
                            "strides": [
                                1,
                                1
                            ],
                            "padding": "same",
                            "data_format": "channels_last",
                            "dilation_rate": [
                                1,
                                1
                            ],
                            "activation": "relu",
                            "use_bias": true,
                            "kernel_initializer": {
                                "class_name": "VarianceScaling",
                                "config": {
                                    "scale": 1.0,
                                    "mode": "fan_avg",
                                    "distribution": "uniform",
                                    "seed": null
                                }
                            },
                            "bias_initializer": {
                                "class_name": "Zeros",
                                "config": {}
                            },
                            "kernel_regularizer": null,
                            "bias_regularizer": null,
                            "activity_regularizer": null,
                            "kernel_constraint": null,
                            "bias_constraint": null
                        }
                    },
                    {
                        "class_name": "Conv2D",
                        "config": {
                            "name": "conv2d_2",
                            "trainable": true,
                            "filters": 64,
                            "kernel_size": [
                                3,
                                3
                            ],
                            "strides": [
                                1,
                                1
                            ],
                            "padding": "same",
                            "data_format": "channels_last",
                            "dilation_rate": [
                                1,
                                1
                            ],
                            "activation": "relu",
                            "use_bias": true,
                            "kernel_initializer": {
                                "class_name": "VarianceScaling",
                                "config": {
                                    "scale": 1.0,
                                    "mode": "fan_avg",
                                    "distribution": "uniform",
                                    "seed": null
                                }
                            },
                            "bias_initializer": {
                                "class_name": "Zeros",
                                "config": {}
                            },
                            "kernel_regularizer": null,
                            "bias_regularizer": null,
                            "activity_regularizer": null,
                            "kernel_constraint": null,
                            "bias_constraint": null
                        }
                    },
                    {
                        "class_name": "MaxPooling2D",
                        "config": {
                            "name": "max_pooling2d_1",
                            "trainable": true,
                            "pool_size": [
                                2,
                                2
                            ],
                            "padding": "valid",
                            "strides": [
                                2,
                                2
                            ],
                            "data_format": "channels_last"
                        }
                    },
                    {
                        "class_name": "BatchNormalization",
                        "config": {
                            "name": "batch_normalization_1",
                            "trainable": true,
                            "axis": -1,
                            "momentum": 0.99,
                            "epsilon": 0.001,
                            "center": true,
                            "scale": true,
                            "beta_initializer": {
                                "class_name": "Zeros",
                                "config": {}
                            },
                            "gamma_initializer": {
                                "class_name": "Ones",
                                "config": {}
                            },
                            "moving_mean_initializer": {
                                "class_name": "Zeros",
                                "config": {}
                            },
                            "moving_variance_initializer": {
                                "class_name": "Ones",
                                "config": {}
                            },
                            "beta_regularizer": null,
                            "gamma_regularizer": null,
                            "beta_constraint": null,
                            "gamma_constraint": null
                        }
                    },
                    {
                        "class_name": "Conv2D",
                        "config": {
                            "name": "conv2d_3",
                            "trainable": true,
                            "filters": 128,
                            "kernel_size": [
                                3,
                                3
                            ],
                            "strides": [
                                1,
                                1
                            ],
                            "padding": "same",
                            "data_format": "channels_last",
                            "dilation_rate": [
                                1,
                                1
                            ],
                            "activation": "relu",
                            "use_bias": true,
                            "kernel_initializer": {
                                "class_name": "VarianceScaling",
                                "config": {
                                    "scale": 1.0,
                                    "mode": "fan_avg",
                                    "distribution": "uniform",
                                    "seed": null
                                }
                            },
                            "bias_initializer": {
                                "class_name": "Zeros",
                                "config": {}
                            },
                            "kernel_regularizer": null,
                            "bias_regularizer": null,
                            "activity_regularizer": null,
                            "kernel_constraint": null,
                            "bias_constraint": null
                        }
                    },
                    {
                        "class_name": "Conv2D",
                        "config": {
                            "name": "conv2d_4",
                            "trainable": true,
                            "filters": 128,
                            "kernel_size": [
                                3,
                                3
                            ],
                            "strides": [
                                1,
                                1
                            ],
                            "padding": "same",
                            "data_format": "channels_last",
                            "dilation_rate": [
                                1,
                                1
                            ],
                            "activation": "relu",
                            "use_bias": true,
                            "kernel_initializer": {
                                "class_name": "VarianceScaling",
                                "config": {
                                    "scale": 1.0,
                                    "mode": "fan_avg",
                                    "distribution": "uniform",
                                    "seed": null
                                }
                            },
                            "bias_initializer": {
                                "class_name": "Zeros",
                                "config": {}
                            },
                            "kernel_regularizer": null,
                            "bias_regularizer": null,
                            "activity_regularizer": null,
                            "kernel_constraint": null,
                            "bias_constraint": null
                        }
                    },
                    {
                        "class_name": "MaxPooling2D",
                        "config": {
                            "name": "max_pooling2d_2",
                            "trainable": true,
                            "pool_size": [
                                2,
                                2
                            ],
                            "padding": "valid",
                            "strides": [
                                2,
                                2
                            ],
                            "data_format": "channels_last"
                        }
                    },
                    {
                        "class_name": "BatchNormalization",
                        "config": {
                            "name": "batch_normalization_2",
                            "trainable": true,
                            "axis": -1,
                            "momentum": 0.99,
                            "epsilon": 0.001,
                            "center": true,
                            "scale": true,
                            "beta_initializer": {
                                "class_name": "Zeros",
                                "config": {}
                            },
                            "gamma_initializer": {
                                "class_name": "Ones",
                                "config": {}
                            },
                            "moving_mean_initializer": {
                                "class_name": "Zeros",
                                "config": {}
                            },
                            "moving_variance_initializer": {
                                "class_name": "Ones",
                                "config": {}
                            },
                            "beta_regularizer": null,
                            "gamma_regularizer": null,
                            "beta_constraint": null,
                            "gamma_constraint": null
                        }
                    },
                    {
                        "class_name": "Conv2D",
                        "config": {
                            "name": "conv2d_5",
                            "trainable": true,
                            "filters": 256,
                            "kernel_size": [
                                3,
                                3
                            ],
                            "strides": [
                                1,
                                1
                            ],
                            "padding": "same",
                            "data_format": "channels_last",
                            "dilation_rate": [
                                1,
                                1
                            ],
                            "activation": "relu",
                            "use_bias": true,
                            "kernel_initializer": {
                                "class_name": "VarianceScaling",
                                "config": {
                                    "scale": 1.0,
                                    "mode": "fan_avg",
                                    "distribution": "uniform",
                                    "seed": null
                                }
                            },
                            "bias_initializer": {
                                "class_name": "Zeros",
                                "config": {}
                            },
                            "kernel_regularizer": null,
                            "bias_regularizer": null,
                            "activity_regularizer": null,
                            "kernel_constraint": null,
                            "bias_constraint": null
                        }
                    },
                    {
                        "class_name": "Conv2D",
                        "config": {
                            "name": "conv2d_6",
                            "trainable": true,
                            "filters": 256,
                            "kernel_size": [
                                3,
                                3
                            ],
                            "strides": [
                                1,
                                1
                            ],
                            "padding": "same",
                            "data_format": "channels_last",
                            "dilation_rate": [
                                1,
                                1
                            ],
                            "activation": "relu",
                            "use_bias": true,
                            "kernel_initializer": {
                                "class_name": "VarianceScaling",
                                "config": {
                                    "scale": 1.0,
                                    "mode": "fan_avg",
                                    "distribution": "uniform",
                                    "seed": null
                                }
                            },
                            "bias_initializer": {
                                "class_name": "Zeros",
                                "config": {}
                            },
                            "kernel_regularizer": null,
                            "bias_regularizer": null,
                            "activity_regularizer": null,
                            "kernel_constraint": null,
                            "bias_constraint": null
                        }
                    },
                    {
                        "class_name": "Conv2D",
                        "config": {
                            "name": "conv2d_7",
                            "trainable": true,
                            "filters": 256,
                            "kernel_size": [
                                3,
                                3
                            ],
                            "strides": [
                                1,
                                1
                            ],
                            "padding": "same",
                            "data_format": "channels_last",
                            "dilation_rate": [
                                1,
                                1
                            ],
                            "activation": "relu",
                            "use_bias": true,
                            "kernel_initializer": {
                                "class_name": "VarianceScaling",
                                "config": {
                                    "scale": 1.0,
                                    "mode": "fan_avg",
                                    "distribution": "uniform",
                                    "seed": null
                                }
                            },
                            "bias_initializer": {
                                "class_name": "Zeros",
                                "config": {}
                            },
                            "kernel_regularizer": null,
                            "bias_regularizer": null,
                            "activity_regularizer": null,
                            "kernel_constraint": null,
                            "bias_constraint": null
                        }
                    },
                    {
                        "class_name": "MaxPooling2D",
                        "config": {
                            "name": "max_pooling2d_3",
                            "trainable": true,
                            "pool_size": [
                                2,
                                2
                            ],
                            "padding": "valid",
                            "strides": [
                                2,
                                2
                            ],
                            "data_format": "channels_last"
                        }
                    },
                    {
                        "class_name": "BatchNormalization",
                        "config": {
                            "name": "batch_normalization_3",
                            "trainable": true,
                            "axis": -1,
                            "momentum": 0.99,
                            "epsilon": 0.001,
                            "center": true,
                            "scale": true,
                            "beta_initializer": {
                                "class_name": "Zeros",
                                "config": {}
                            },
                            "gamma_initializer": {
                                "class_name": "Ones",
                                "config": {}
                            },
                            "moving_mean_initializer": {
                                "class_name": "Zeros",
                                "config": {}
                            },
                            "moving_variance_initializer": {
                                "class_name": "Ones",
                                "config": {}
                            },
                            "beta_regularizer": null,
                            "gamma_regularizer": null,
                            "beta_constraint": null,
                            "gamma_constraint": null
                        }
                    },
                    {
                        "class_name": "Conv2D",
                        "config": {
                            "name": "conv2d_8",
                            "trainable": true,
                            "filters": 512,
                            "kernel_size": [
                                3,
                                3
                            ],
                            "strides": [
                                1,
                                1
                            ],
                            "padding": "same",
                            "data_format": "channels_last",
                            "dilation_rate": [
                                1,
                                1
                            ],
                            "activation": "relu",
                            "use_bias": true,
                            "kernel_initializer": {
                                "class_name": "VarianceScaling",
                                "config": {
                                    "scale": 1.0,
                                    "mode": "fan_avg",
                                    "distribution": "uniform",
                                    "seed": null
                                }
                            },
                            "bias_initializer": {
                                "class_name": "Zeros",
                                "config": {}
                            },
                            "kernel_regularizer": null,
                            "bias_regularizer": null,
                            "activity_regularizer": null,
                            "kernel_constraint": null,
                            "bias_constraint": null
                        }
                    },
                    {
                        "class_name": "Conv2D",
                        "config": {
                            "name": "conv2d_9",
                            "trainable": true,
                            "filters": 512,
                            "kernel_size": [
                                3,
                                3
                            ],
                            "strides": [
                                1,
                                1
                            ],
                            "padding": "same",
                            "data_format": "channels_last",
                            "dilation_rate": [
                                1,
                                1
                            ],
                            "activation": "relu",
                            "use_bias": true,
                            "kernel_initializer": {
                                "class_name": "VarianceScaling",
                                "config": {
                                    "scale": 1.0,
                                    "mode": "fan_avg",
                                    "distribution": "uniform",
                                    "seed": null
                                }
                            },
                            "bias_initializer": {
                                "class_name": "Zeros",
                                "config": {}
                            },
                            "kernel_regularizer": null,
                            "bias_regularizer": null,
                            "activity_regularizer": null,
                            "kernel_constraint": null,
                            "bias_constraint": null
                        }
                    },
                    {
                        "class_name": "Conv2D",
                        "config": {
                            "name": "conv2d_10",
                            "trainable": true,
                            "filters": 512,
                            "kernel_size": [
                                3,
                                3
                            ],
                            "strides": [
                                1,
                                1
                            ],
                            "padding": "same",
                            "data_format": "channels_last",
                            "dilation_rate": [
                                1,
                                1
                            ],
                            "activation": "relu",
                            "use_bias": true,
                            "kernel_initializer": {
                                "class_name": "VarianceScaling",
                                "config": {
                                    "scale": 1.0,
                                    "mode": "fan_avg",
                                    "distribution": "uniform",
                                    "seed": null
                                }
                            },
                            "bias_initializer": {
                                "class_name": "Zeros",
                                "config": {}
                            },
                            "kernel_regularizer": null,
                            "bias_regularizer": null,
                            "activity_regularizer": null,
                            "kernel_constraint": null,
                            "bias_constraint": null
                        }
                    },
                    {
                        "class_name": "MaxPooling2D",
                        "config": {
                            "name": "max_pooling2d_4",
                            "trainable": true,
                            "pool_size": [
                                2,
                                2
                            ],
                            "padding": "valid",
                            "strides": [
                                2,
                                2
                            ],
                            "data_format": "channels_last"
                        }
                    },
                    {
                        "class_name": "BatchNormalization",
                        "config": {
                            "name": "batch_normalization_4",
                            "trainable": true,
                            "axis": -1,
                            "momentum": 0.99,
                            "epsilon": 0.001,
                            "center": true,
                            "scale": true,
                            "beta_initializer": {
                                "class_name": "Zeros",
                                "config": {}
                            },
                            "gamma_initializer": {
                                "class_name": "Ones",
                                "config": {}
                            },
                            "moving_mean_initializer": {
                                "class_name": "Zeros",
                                "config": {}
                            },
                            "moving_variance_initializer": {
                                "class_name": "Ones",
                                "config": {}
                            },
                            "beta_regularizer": null,
                            "gamma_regularizer": null,
                            "beta_constraint": null,
                            "gamma_constraint": null
                        }
                    },
                    {
                        "class_name": "Conv2D",
                        "config": {
                            "name": "conv2d_11",
                            "trainable": true,
                            "filters": 512,
                            "kernel_size": [
                                3,
                                3
                            ],
                            "strides": [
                                1,
                                1
                            ],
                            "padding": "same",
                            "data_format": "channels_last",
                            "dilation_rate": [
                                1,
                                1
                            ],
                            "activation": "relu",
                            "use_bias": true,
                            "kernel_initializer": {
                                "class_name": "VarianceScaling",
                                "config": {
                                    "scale": 1.0,
                                    "mode": "fan_avg",
                                    "distribution": "uniform",
                                    "seed": null
                                }
                            },
                            "bias_initializer": {
                                "class_name": "Zeros",
                                "config": {}
                            },
                            "kernel_regularizer": null,
                            "bias_regularizer": null,
                            "activity_regularizer": null,
                            "kernel_constraint": null,
                            "bias_constraint": null
                        }
                    },
                    {
                        "class_name": "Conv2D",
                        "config": {
                            "name": "conv2d_12",
                            "trainable": true,
                            "filters": 512,
                            "kernel_size": [
                                3,
                                3
                            ],
                            "strides": [
                                1,
                                1
                            ],
                            "padding": "same",
                            "data_format": "channels_last",
                            "dilation_rate": [
                                1,
                                1
                            ],
                            "activation": "relu",
                            "use_bias": true,
                            "kernel_initializer": {
                                "class_name": "VarianceScaling",
                                "config": {
                                    "scale": 1.0,
                                    "mode": "fan_avg",
                                    "distribution": "uniform",
                                    "seed": null
                                }
                            },
                            "bias_initializer": {
                                "class_name": "Zeros",
                                "config": {}
                            },
                            "kernel_regularizer": null,
                            "bias_regularizer": null,
                            "activity_regularizer": null,
                            "kernel_constraint": null,
                            "bias_constraint": null
                        }
                    },
                    {
                        "class_name": "Conv2D",
                        "config": {
                            "name": "conv2d_13",
                            "trainable": true,
                            "filters": 512,
                            "kernel_size": [
                                3,
                                3
                            ],
                            "strides": [
                                1,
                                1
                            ],
                            "padding": "same",
                            "data_format": "channels_last",
                            "dilation_rate": [
                                1,
                                1
                            ],
                            "activation": "relu",
                            "use_bias": true,
                            "kernel_initializer": {
                                "class_name": "VarianceScaling",
                                "config": {
                                    "scale": 1.0,
                                    "mode": "fan_avg",
                                    "distribution": "uniform",
                                    "seed": null
                                }
                            },
                            "bias_initializer": {
                                "class_name": "Zeros",
                                "config": {}
                            },
                            "kernel_regularizer": null,
                            "bias_regularizer": null,
                            "activity_regularizer": null,
                            "kernel_constraint": null,
                            "bias_constraint": null
                        }
                    },
                    {
                        "class_name": "MaxPooling2D",
                        "config": {
                            "name": "max_pooling2d_5",
                            "trainable": true,
                            "pool_size": [
                                2,
                                2
                            ],
                            "padding": "valid",
                            "strides": [
                                2,
                                2
                            ],
                            "data_format": "channels_last"
                        }
                    },
                    {
                        "class_name": "BatchNormalization",
                        "config": {
                            "name": "batch_normalization_5",
                            "trainable": true,
                            "axis": -1,
                            "momentum": 0.99,
                            "epsilon": 0.001,
                            "center": true,
                            "scale": true,
                            "beta_initializer": {
                                "class_name": "Zeros",
                                "config": {}
                            },
                            "gamma_initializer": {
                                "class_name": "Ones",
                                "config": {}
                            },
                            "moving_mean_initializer": {
                                "class_name": "Zeros",
                                "config": {}
                            },
                            "moving_variance_initializer": {
                                "class_name": "Ones",
                                "config": {}
                            },
                            "beta_regularizer": null,
                            "gamma_regularizer": null,
                            "beta_constraint": null,
                            "gamma_constraint": null
                        }
                    },
                    {
                        "class_name": "Flatten",
                        "config": {
                            "name": "flatten_1",
                            "trainable": true,
                            "data_format": "channels_last"
                        }
                    },
                    {
                        "class_name": "Dense",
                        "config": {
                            "name": "dense_1",
                            "trainable": true,
                            "units": 4096,
                            "activation": "relu",
                            "use_bias": true,
                            "kernel_initializer": {
                                "class_name": "VarianceScaling",
                                "config": {
                                    "scale": 1.0,
                                    "mode": "fan_avg",
                                    "distribution": "uniform",
                                    "seed": null
                                }
                            },
                            "bias_initializer": {
                                "class_name": "Zeros",
                                "config": {}
                            },
                            "kernel_regularizer": null,
                            "bias_regularizer": null,
                            "activity_regularizer": null,
                            "kernel_constraint": null,
                            "bias_constraint": null
                        }
                    },
                    {
                        "class_name": "Dropout",
                        "config": {
                            "name": "dropout_1",
                            "trainable": true,
                            "rate": 0.4,
                            "noise_shape": null,
                            "seed": null
                        }
                    },
                    {
                        "class_name": "BatchNormalization",
                        "config": {
                            "name": "batch_normalization_6",
                            "trainable": true,
                            "axis": -1,
                            "momentum": 0.99,
                            "epsilon": 0.001,
                            "center": true,
                            "scale": true,
                            "beta_initializer": {
                                "class_name": "Zeros",
                                "config": {}
                            },
                            "gamma_initializer": {
                                "class_name": "Ones",
                                "config": {}
                            },
                            "moving_mean_initializer": {
                                "class_name": "Zeros",
                                "config": {}
                            },
                            "moving_variance_initializer": {
                                "class_name": "Ones",
                                "config": {}
                            },
                            "beta_regularizer": null,
                            "gamma_regularizer": null,
                            "beta_constraint": null,
                            "gamma_constraint": null
                        }
                    },
                    {
                        "class_name": "Dense",
                        "config": {
                            "name": "dense_2",
                            "trainable": true,
                            "units": 4096,
                            "activation": "relu",
                            "use_bias": true,
                            "kernel_initializer": {
                                "class_name": "VarianceScaling",
                                "config": {
                                    "scale": 1.0,
                                    "mode": "fan_avg",
                                    "distribution": "uniform",
                                    "seed": null
                                }
                            },
                            "bias_initializer": {
                                "class_name": "Zeros",
                                "config": {}
                            },
                            "kernel_regularizer": null,
                            "bias_regularizer": null,
                            "activity_regularizer": null,
                            "kernel_constraint": null,
                            "bias_constraint": null
                        }
                    },
                    {
                        "class_name": "Dropout",
                        "config": {
                            "name": "dropout_2",
                            "trainable": true,
                            "rate": 0.4,
                            "noise_shape": null,
                            "seed": null
                        }
                    },
                    {
                        "class_name": "BatchNormalization",
                        "config": {
                            "name": "batch_normalization_7",
                            "trainable": true,
                            "axis": -1,
                            "momentum": 0.99,
                            "epsilon": 0.001,
                            "center": true,
                            "scale": true,
                            "beta_initializer": {
                                "class_name": "Zeros",
                                "config": {}
                            },
                            "gamma_initializer": {
                                "class_name": "Ones",
                                "config": {}
                            },
                            "moving_mean_initializer": {
                                "class_name": "Zeros",
                                "config": {}
                            },
                            "moving_variance_initializer": {
                                "class_name": "Ones",
                                "config": {}
                            },
                            "beta_regularizer": null,
                            "gamma_regularizer": null,
                            "beta_constraint": null,
                            "gamma_constraint": null
                        }
                    },
                    {
                        "class_name": "Dense",
                        "config": {
                            "name": "dense_3",
                            "trainable": true,
                            "units": 1000,
                            "activation": "relu",
                            "use_bias": true,
                            "kernel_initializer": {
                                "class_name": "VarianceScaling",
                                "config": {
                                    "scale": 1.0,
                                    "mode": "fan_avg",
                                    "distribution": "uniform",
                                    "seed": null
                                }
                            },
                            "bias_initializer": {
                                "class_name": "Zeros",
                                "config": {}
                            },
                            "kernel_regularizer": null,
                            "bias_regularizer": null,
                            "activity_regularizer": null,
                            "kernel_constraint": null,
                            "bias_constraint": null
                        }
                    },
                    {
                        "class_name": "Dropout",
                        "config": {
                            "name": "dropout_3",
                            "trainable": true,
                            "rate": 0.2,
                            "noise_shape": null,
                            "seed": null
                        }
                    },
                    {
                        "class_name": "BatchNormalization",
                        "config": {
                            "name": "batch_normalization_8",
                            "trainable": true,
                            "axis": -1,
                            "momentum": 0.99,
                            "epsilon": 0.001,
                            "center": true,
                            "scale": true,
                            "beta_initializer": {
                                "class_name": "Zeros",
                                "config": {}
                            },
                            "gamma_initializer": {
                                "class_name": "Ones",
                                "config": {}
                            },
                            "moving_mean_initializer": {
                                "class_name": "Zeros",
                                "config": {}
                            },
                            "moving_variance_initializer": {
                                "class_name": "Ones",
                                "config": {}
                            },
                            "beta_regularizer": null,
                            "gamma_regularizer": null,
                            "beta_constraint": null,
                            "gamma_constraint": null
                        }
                    },
                    {
                        "class_name": "Dense",
                        "config": {
                            "name": "dense_4",
                            "trainable": true,
                            "units": 38,
                            "activation": "softmax",
                            "use_bias": true,
                            "kernel_initializer": {
                                "class_name": "VarianceScaling",
                                "config": {
                                    "scale": 1.0,
                                    "mode": "fan_avg",
                                    "distribution": "uniform",
                                    "seed": null
                                }
                            },
                            "bias_initializer": {
                                "class_name": "Zeros",
                                "config": {}
                            },
                            "kernel_regularizer": null,
                            "bias_regularizer": null,
                            "activity_regularizer": null,
                            "kernel_constraint": null,
                            "bias_constraint": null
                        }
                    }
                ]
            }
        },
        "training_config": {
            "optimizer_config": {
                "class_name": "SGD",
                "config": {
                    "lr": 0.0010000000474974513,
                    "momentum": 0.8999999761581421,
                    "decay": 9.999999747378752e-05,
                    "nesterov": false
                }
            },
            "loss": "categorical_crossentropy",
            "metrics": [
                "accuracy"
            ],
            "sample_weight_mode": null,
            "loss_weights": null
        }
    },
    "weightsManifest": [
        {
            "paths": [
                "group1-shard1of133.bin",
                "group1-shard2of133.bin",
                "group1-shard3of133.bin",
                "group1-shard4of133.bin",
                "group1-shard5of133.bin",
                "group1-shard6of133.bin",
                "group1-shard7of133.bin",
                "group1-shard8of133.bin",
                "group1-shard9of133.bin",
                "group1-shard10of133.bin",
                "group1-shard11of133.bin",
                "group1-shard12of133.bin",
                "group1-shard13of133.bin",
                "group1-shard14of133.bin",
                "group1-shard15of133.bin",
                "group1-shard16of133.bin",
                "group1-shard17of133.bin",
                "group1-shard18of133.bin",
                "group1-shard19of133.bin",
                "group1-shard20of133.bin",
                "group1-shard21of133.bin",
                "group1-shard22of133.bin",
                "group1-shard23of133.bin",
                "group1-shard24of133.bin",
                "group1-shard25of133.bin",
                "group1-shard26of133.bin",
                "group1-shard27of133.bin",
                "group1-shard28of133.bin",
                "group1-shard29of133.bin",
                "group1-shard30of133.bin",
                "group1-shard31of133.bin",
                "group1-shard32of133.bin",
                "group1-shard33of133.bin",
                "group1-shard34of133.bin",
                "group1-shard35of133.bin",
                "group1-shard36of133.bin",
                "group1-shard37of133.bin",
                "group1-shard38of133.bin",
                "group1-shard39of133.bin",
                "group1-shard40of133.bin",
                "group1-shard41of133.bin",
                "group1-shard42of133.bin",
                "group1-shard43of133.bin",
                "group1-shard44of133.bin",
                "group1-shard45of133.bin",
                "group1-shard46of133.bin",
                "group1-shard47of133.bin",
                "group1-shard48of133.bin",
                "group1-shard49of133.bin",
                "group1-shard50of133.bin",
                "group1-shard51of133.bin",
                "group1-shard52of133.bin",
                "group1-shard53of133.bin",
                "group1-shard54of133.bin",
                "group1-shard55of133.bin",
                "group1-shard56of133.bin",
                "group1-shard57of133.bin",
                "group1-shard58of133.bin",
                "group1-shard59of133.bin",
                "group1-shard60of133.bin",
                "group1-shard61of133.bin",
                "group1-shard62of133.bin",
                "group1-shard63of133.bin",
                "group1-shard64of133.bin",
                "group1-shard65of133.bin",
                "group1-shard66of133.bin",
                "group1-shard67of133.bin",
                "group1-shard68of133.bin",
                "group1-shard69of133.bin",
                "group1-shard70of133.bin",
                "group1-shard71of133.bin",
                "group1-shard72of133.bin",
                "group1-shard73of133.bin",
                "group1-shard74of133.bin",
                "group1-shard75of133.bin",
                "group1-shard76of133.bin",
                "group1-shard77of133.bin",
                "group1-shard78of133.bin",
                "group1-shard79of133.bin",
                "group1-shard80of133.bin",
                "group1-shard81of133.bin",
                "group1-shard82of133.bin",
                "group1-shard83of133.bin",
                "group1-shard84of133.bin",
                "group1-shard85of133.bin",
                "group1-shard86of133.bin",
                "group1-shard87of133.bin",
                "group1-shard88of133.bin",
                "group1-shard89of133.bin",
                "group1-shard90of133.bin",
                "group1-shard91of133.bin",
                "group1-shard92of133.bin",
                "group1-shard93of133.bin",
                "group1-shard94of133.bin",
                "group1-shard95of133.bin",
                "group1-shard96of133.bin",
                "group1-shard97of133.bin",
                "group1-shard98of133.bin",
                "group1-shard99of133.bin",
                "group1-shard100of133.bin",
                "group1-shard101of133.bin",
                "group1-shard102of133.bin",
                "group1-shard103of133.bin",
                "group1-shard104of133.bin",
                "group1-shard105of133.bin",
                "group1-shard106of133.bin",
                "group1-shard107of133.bin",
                "group1-shard108of133.bin",
                "group1-shard109of133.bin",
                "group1-shard110of133.bin",
                "group1-shard111of133.bin",
                "group1-shard112of133.bin",
                "group1-shard113of133.bin",
                "group1-shard114of133.bin",
                "group1-shard115of133.bin",
                "group1-shard116of133.bin",
                "group1-shard117of133.bin",
                "group1-shard118of133.bin",
                "group1-shard119of133.bin",
                "group1-shard120of133.bin",
                "group1-shard121of133.bin",
                "group1-shard122of133.bin",
                "group1-shard123of133.bin",
                "group1-shard124of133.bin",
                "group1-shard125of133.bin",
                "group1-shard126of133.bin",
                "group1-shard127of133.bin",
                "group1-shard128of133.bin",
                "group1-shard129of133.bin",
                "group1-shard130of133.bin",
                "group1-shard131of133.bin",
                "group1-shard132of133.bin",
                "group1-shard133of133.bin"
            ],
            "weights": [
                {
                    "name": "batch_normalization_1_4/gamma",
                    "shape": [
                        64
                    ],
                    "dtype": "float32"
                },
                {
                    "name": "batch_normalization_1_4/beta",
                    "shape": [
                        64
                    ],
                    "dtype": "float32"
                },
                {
                    "name": "batch_normalization_1_4/moving_mean",
                    "shape": [
                        64
                    ],
                    "dtype": "float32"
                },
                {
                    "name": "batch_normalization_1_4/moving_variance",
                    "shape": [
                        64
                    ],
                    "dtype": "float32"
                },
                {
                    "name": "batch_normalization_2_4/gamma",
                    "shape": [
                        128
                    ],
                    "dtype": "float32"
                },
                {
                    "name": "batch_normalization_2_4/beta",
                    "shape": [
                        128
                    ],
                    "dtype": "float32"
                },
                {
                    "name": "batch_normalization_2_4/moving_mean",
                    "shape": [
                        128
                    ],
                    "dtype": "float32"
                },
                {
                    "name": "batch_normalization_2_4/moving_variance",
                    "shape": [
                        128
                    ],
                    "dtype": "float32"
                },
                {
                    "name": "batch_normalization_3_4/gamma",
                    "shape": [
                        256
                    ],
                    "dtype": "float32"
                },
                {
                    "name": "batch_normalization_3_4/beta",
                    "shape": [
                        256
                    ],
                    "dtype": "float32"
                },
                {
                    "name": "batch_normalization_3_4/moving_mean",
                    "shape": [
                        256
                    ],
                    "dtype": "float32"
                },
                {
                    "name": "batch_normalization_3_4/moving_variance",
                    "shape": [
                        256
                    ],
                    "dtype": "float32"
                },
                {
                    "name": "batch_normalization_4_4/gamma",
                    "shape": [
                        512
                    ],
                    "dtype": "float32"
                },
                {
                    "name": "batch_normalization_4_4/beta",
                    "shape": [
                        512
                    ],
                    "dtype": "float32"
                },
                {
                    "name": "batch_normalization_4_4/moving_mean",
                    "shape": [
                        512
                    ],
                    "dtype": "float32"
                },
                {
                    "name": "batch_normalization_4_4/moving_variance",
                    "shape": [
                        512
                    ],
                    "dtype": "float32"
                },
                {
                    "name": "batch_normalization_5_4/gamma",
                    "shape": [
                        512
                    ],
                    "dtype": "float32"
                },
                {
                    "name": "batch_normalization_5_4/beta",
                    "shape": [
                        512
                    ],
                    "dtype": "float32"
                },
                {
                    "name": "batch_normalization_5_4/moving_mean",
                    "shape": [
                        512
                    ],
                    "dtype": "float32"
                },
                {
                    "name": "batch_normalization_5_4/moving_variance",
                    "shape": [
                        512
                    ],
                    "dtype": "float32"
                },
                {
                    "name": "batch_normalization_6_4/gamma",
                    "shape": [
                        4096
                    ],
                    "dtype": "float32"
                },
                {
                    "name": "batch_normalization_6_4/beta",
                    "shape": [
                        4096
                    ],
                    "dtype": "float32"
                },
                {
                    "name": "batch_normalization_6_4/moving_mean",
                    "shape": [
                        4096
                    ],
                    "dtype": "float32"
                },
                {
                    "name": "batch_normalization_6_4/moving_variance",
                    "shape": [
                        4096
                    ],
                    "dtype": "float32"
                },
                {
                    "name": "batch_normalization_7_4/gamma",
                    "shape": [
                        4096
                    ],
                    "dtype": "float32"
                },
                {
                    "name": "batch_normalization_7_4/beta",
                    "shape": [
                        4096
                    ],
                    "dtype": "float32"
                },
                {
                    "name": "batch_normalization_7_4/moving_mean",
                    "shape": [
                        4096
                    ],
                    "dtype": "float32"
                },
                {
                    "name": "batch_normalization_7_4/moving_variance",
                    "shape": [
                        4096
                    ],
                    "dtype": "float32"
                },
                {
                    "name": "batch_normalization_8_4/gamma",
                    "shape": [
                        1000
                    ],
                    "dtype": "float32"
                },
                {
                    "name": "batch_normalization_8_4/beta",
                    "shape": [
                        1000
                    ],
                    "dtype": "float32"
                },
                {
                    "name": "batch_normalization_8_4/moving_mean",
                    "shape": [
                        1000
                    ],
                    "dtype": "float32"
                },
                {
                    "name": "batch_normalization_8_4/moving_variance",
                    "shape": [
                        1000
                    ],
                    "dtype": "float32"
                },
                {
                    "name": "conv2d_1_4/kernel",
                    "shape": [
                        3,
                        3,
                        3,
                        64
                    ],
                    "dtype": "float32"
                },
                {
                    "name": "conv2d_1_4/bias",
                    "shape": [
                        64
                    ],
                    "dtype": "float32"
                },
                {
                    "name": "conv2d_10_4/kernel",
                    "shape": [
                        3,
                        3,
                        512,
                        512
                    ],
                    "dtype": "float32"
                },
                {
                    "name": "conv2d_10_4/bias",
                    "shape": [
                        512
                    ],
                    "dtype": "float32"
                },
                {
                    "name": "conv2d_11_4/kernel",
                    "shape": [
                        3,
                        3,
                        512,
                        512
                    ],
                    "dtype": "float32"
                },
                {
                    "name": "conv2d_11_4/bias",
                    "shape": [
                        512
                    ],
                    "dtype": "float32"
                },
                {
                    "name": "conv2d_12_4/kernel",
                    "shape": [
                        3,
                        3,
                        512,
                        512
                    ],
                    "dtype": "float32"
                },
                {
                    "name": "conv2d_12_4/bias",
                    "shape": [
                        512
                    ],
                    "dtype": "float32"
                },
                {
                    "name": "conv2d_13_4/kernel",
                    "shape": [
                        3,
                        3,
                        512,
                        512
                    ],
                    "dtype": "float32"
                },
                {
                    "name": "conv2d_13_4/bias",
                    "shape": [
                        512
                    ],
                    "dtype": "float32"
                },
                {
                    "name": "conv2d_2_4/kernel",
                    "shape": [
                        3,
                        3,
                        64,
                        64
                    ],
                    "dtype": "float32"
                },
                {
                    "name": "conv2d_2_4/bias",
                    "shape": [
                        64
                    ],
                    "dtype": "float32"
                },
                {
                    "name": "conv2d_3_4/kernel",
                    "shape": [
                        3,
                        3,
                        64,
                        128
                    ],
                    "dtype": "float32"
                },
                {
                    "name": "conv2d_3_4/bias",
                    "shape": [
                        128
                    ],
                    "dtype": "float32"
                },
                {
                    "name": "conv2d_4_4/kernel",
                    "shape": [
                        3,
                        3,
                        128,
                        128
                    ],
                    "dtype": "float32"
                },
                {
                    "name": "conv2d_4_4/bias",
                    "shape": [
                        128
                    ],
                    "dtype": "float32"
                },
                {
                    "name": "conv2d_5_4/kernel",
                    "shape": [
                        3,
                        3,
                        128,
                        256
                    ],
                    "dtype": "float32"
                },
                {
                    "name": "conv2d_5_4/bias",
                    "shape": [
                        256
                    ],
                    "dtype": "float32"
                },
                {
                    "name": "conv2d_6_4/kernel",
                    "shape": [
                        3,
                        3,
                        256,
                        256
                    ],
                    "dtype": "float32"
                },
                {
                    "name": "conv2d_6_4/bias",
                    "shape": [
                        256
                    ],
                    "dtype": "float32"
                },
                {
                    "name": "conv2d_7_4/kernel",
                    "shape": [
                        3,
                        3,
                        256,
                        256
                    ],
                    "dtype": "float32"
                },
                {
                    "name": "conv2d_7_4/bias",
                    "shape": [
                        256
                    ],
                    "dtype": "float32"
                },
                {
                    "name": "conv2d_8_4/kernel",
                    "shape": [
                        3,
                        3,
                        256,
                        512
                    ],
                    "dtype": "float32"
                },
                {
                    "name": "conv2d_8_4/bias",
                    "shape": [
                        512
                    ],
                    "dtype": "float32"
                },
                {
                    "name": "conv2d_9_4/kernel",
                    "shape": [
                        3,
                        3,
                        512,
                        512
                    ],
                    "dtype": "float32"
                },
                {
                    "name": "conv2d_9_4/bias",
                    "shape": [
                        512
                    ],
                    "dtype": "float32"
                },
                {
                    "name": "dense_1_4/kernel",
                    "shape": [
                        25088,
                        4096
                    ],
                    "dtype": "float32"
                },
                {
                    "name": "dense_1_4/bias",
                    "shape": [
                        4096
                    ],
                    "dtype": "float32"
                },
                {
                    "name": "dense_2_4/kernel",
                    "shape": [
                        4096,
                        4096
                    ],
                    "dtype": "float32"
                },
                {
                    "name": "dense_2_4/bias",
                    "shape": [
                        4096
                    ],
                    "dtype": "float32"
                },
                {
                    "name": "dense_3_4/kernel",
                    "shape": [
                        4096,
                        1000
                    ],
                    "dtype": "float32"
                },
                {
                    "name": "dense_3_4/bias",
                    "shape": [
                        1000
                    ],
                    "dtype": "float32"
                },
                {
                    "name": "dense_4_4/kernel",
                    "shape": [
                        1000,
                        38
                    ],
                    "dtype": "float32"
                },
                {
                    "name": "dense_4_4/bias",
                    "shape": [
                        38
                    ],
                    "dtype": "float32"
                }
            ]
        }
    ]
}